Pytroch/feedforwardnet.pth (torch, 815945 bytes, 4 tensors)

dense_layers.0.weight f4 [256, 784]
0	0x3d108a75	0.035288293
1	0x3d085b47	0.033290174
2	0xbce84275	-0.028352002
3	0xbc6c4006	-0.014419561
4	0xbca80f13	-0.020515
5	0xbca9b8fe	-0.020718094
6	0x3c679438	0.014134459
7	0xbcf241c1	-0.02957237
8	0xbba9eec0	-0.005185932
9	0xbcecaba8	-0.028890446
10	0x3ce42622	0.027850214
11	0x3ccd6d36	0.02507649
12	0xbbc82610	-0.006108053
13	0x37863a91	1.6001317e-05
14	0x3cef4788	0.029208913
15	0xbcb7e44d	-0.02244773
16	0xbd04566c	-0.03230898
17	0xbb3a2f80	-0.002840966
18	0xbbcfdfc0	-0.0063438118
19	0x3c4e6910	0.012598291
20	0x3c3795a0	0.011205107
21	0xbc7f74ae	-0.015591783
22	0xbd0113ec	-0.03151314
23	0xbc036f38	-0.008022122
24	0xbbd92888	-0.006627146
25	0xbb68a850	-0.0035500713
26	0x3d01a083	0.031647217
27	0x3c604700	0.013688803
28	0xbd0d7dfb	-0.034543972
29	0xbc772258	-0.015083872
30	0x3cc16dfc	0.023612015
31	0xbbf60a78	-0.007508572
32	0x3d1106ae	0.03540676
33	0xbd0ced53	-0.034406018
34	0xbd19a457	-0.037510242
35	0xbd208235	-0.039186675
36	0xbd97f1ed	-0.074191906
37	0xbda39684	-0.07987693
38	0xbda314b7	-0.079629354
39	0x3d8e8341	0.069586284
40	0x3cee4541	0.029085757
41	0x3d8dcebe	0.069241986
42	0x3d293ec2	0.041319616
43	0xbc12d748	-0.00896246
44	0x3d25a57d	0.040441025
45	0xbd8bf37c	-0.0683355
46	0xbe271d03	-0.16319661
47	0xbe219474	-0.15779287
48	0xbdd64245	-0.10461859
49	0xbdb796d7	-0.08964317
50	0xbdc5d278	-0.09659284
51	0xbb8bbbd2	-0.0042643333
52	0xbcf775fc	-0.030207627
53	0xbae83260	-0.0017715208
54	0xbc62ebee	-0.013850195
55	0xbca9fa20	-0.020749152
56	0x3c5c8d40	0.013461411
57	0xbd01e20a	-0.03170971
58	0x3cd02ceb	0.025412044
59	0x3dd75ebc	0.10516116
60	0x3da6e098	0.081483066
61	0x3c0e1304	0.008671526
62	0xbd5412de	-0.051775806
63	0xbcc8590a	-0.02445652
64	0xbcf9fe57	-0.030516787
65	0xbd16a995	-0.03678282
66	0xbe01b8e5	-0.12668188
67	0xbe16295e	-0.14664218
68	0xbe0cbf24	-0.1374479
69	0xbdaaf012	-0.08346571
70	0xbe00450e	-0.12526342
71	0xbdc270a9	-0.094941445
72	0x3bdca154	0.006733099
73	0xbdac8800	-0.084243774
74	0x3d2878bc	0.041130766
75	0x3cf02d00	0.029318333
76	0xbd2073eb	-0.039173048
77	0x3b4eb730	0.0031542294
78	0x3c81c321	0.015840115
79	0xbd10c122	-0.035340436
80	0x3d0de39d	0.034640897
81	0x3d13f908	0.036126167
82	0x3cefdf62	0.029281322
83	0x3cc836f8	0.024440274
84	0xbcebb5d1	-0.02877322
85	0xbbb139a4	-0.0054084826
86	0xbc96eda4	-0.018423863
87	0x3daa59aa	0.08317883
88	0xbd066f4b	-0.03282098
89	0xbda60a5c	-0.08107445
90	0xbdc4bd4f	-0.0960642
91	0xbdbab764	-0.0911701
92	0xbdb057d5	-0.08610503
93	0xbd992384	-0.07477477
94	0xbd1639fe	-0.0366764
95	0xbdad709b	-0.084687434
96	0xbda5f4cf	-0.08103334
97	0xbcd274de	-0.025690492
98	0xbcef9dd3	-0.029250061
99	0xbe1ce303	-0.15320973
100	0xbd963798	-0.073348224
101	0xbc2e0fdc	-0.010623898
102	0x3c7792fe	0.015110729
103	0xbd3ed9f4	-0.046594575
104	0xbcf19f92	-0.029495034
105	0x3db8d20b	0.090244375
106	0x3ddd1e75	0.10796825
107	0x3e022778	0.12710369
108	0x3d386291	0.045015875
109	0x3e1254f7	0.14290224
110	0x3e3ed830	0.18637156
111	0xbd02ff20	-0.031981587
112	0x3c45e788	0.012079127
113	0xbb36a08a	-0.0027866685
114	0xbd5aa75a	-0.053382255
115	0xbd2a9ea5	-0.0416552
116	0xbe031ab0	-0.12803149
117	0xbe20afe1	-0.15692092
118	0xbdac7e3f	-0.08422517
119	0xbdd59048	-0.1042791
120	0xbe16c400	-0.14723206
121	0xbe05b173	-0.13055973
122	0xbdf13018	-0.11776751
123	0xbbe7e363	-0.007076667
124	0xbda3e2e6	-0.08002262
125	0xbd8ea634	-0.069652945
126	0xbdd63484	-0.10459235
127	0xbe0310a3	-0.12799315
128	0xbd950a66	-0.07277374
129	0xbd2e3290	-0.04252869
130	0xbc90ff7d	-0.017699951
131	0xbca07da7	-0.019591166
132	0xbceb9521	-0.028757634
133	0xbb9ca4e3	-0.004780398
134	0x3df08e6b	0.11745914
135	0x3dee111f	0.11624359
136	0x3e26543b	0.16243069
137	0x3e8d358f	0.27579924
138	0x3e4d6cc7	0.20061027
139	0x3e40214f	0.18762706
140	0xbd028abf	-0.0318706
141	0x3a504b40	0.00079457834
142	0x3d3bd4bb	0.045857172
143	0xbcfda93f	-0.030964492
144	0xbde3a13e	-0.11114739
145	0xbe20b779	-0.1569499
146	0xbe0dbbe6	-0.13841209
147	0xbe0b09dd	-0.13577981
148	0xbe043d81	-0.12914087
149	0xbdc70dda	-0.09719439
150	0xbd407efd	-0.046996105
151	0x3d755b26	0.05990138
152	0x3bf1cf07	0.007379416
153	0x3d0366d9	0.032080505
154	0x3cab28d2	0.020893488
155	0x3b207764	0.0024485225
156	0x3c0dd103	0.008655789
157	0x3e011717	0.12606464
158	0x3d85f475	0.06540767
159	0x3d817ad3	0.06322255
160	0x3a759b12	0.00093691156
161	0xbcd3b9c3	-0.025845414
162	0x3c869be6	0.01643176
163	0xbc8a36fe	-0.016871925
164	0x3cdd1cfb	0.026991358
165	0x3e5201c4	0.20508486
166	0x3dd161f0	0.10223758
167	0x3df9975d	0.121870734
168	0x3c98137a	0.018563975
169	0xbd868ac5	-0.06569437
170	0x3da0a6e5	0.078443326
171	0xbdba2d64	-0.09090689
172	0xbe3a7f56	-0.18212637
173	0xbe2e0564	-0.16994244
174	0xbe667f0a	-0.22509399
175	0xbdc1d7eb	-0.09465011
176	0xbd815b93	-0.063162945
177	0xbd9888a2	-0.07447936
178	0x3ccbca6d	0.024876798
179	0xbbc4d5ee	-0.0060069477
180	0x3d03f9f6	0.032220803
181	0x3c9a2a80	0.018819094
182	0x3d6c0f4f	0.057631787
183	0x3da05615	0.07828919
184	0x3d73a699	0.05948505
185	0x3d99e5f8	0.07514566
186	0x3dc4598b	0.095873915
187	0x3dabb2b6	0.08383696
188	0xbcc1d69b	-0.023661902
189	0xbcb658ff	-0.022259234
190	0x3c0dcc44	0.008654658
191	0xbd621d77	-0.05520388
192	0x3d458270	0.048220098
193	0x3dcba8c2	0.099442974
194	0x3c995927	0.018719269
195	0x3da9d606	0.08292775
196	0x3c2dda28	0.010611095
197	0xbdbe1165	-0.092806615
198	0x3d9f3670	0.07774055
199	0xbd8d62a7	-0.06903582
200	0xbe5a4649	-0.21315874
201	0xbe48331b	-0.19550745
202	0xbe18de01	-0.14928438
203	0xbe05ab02	-0.13053516
204	0xbd9f9588	-0.07792193
205	0x3bef869c	0.007309748
206	0x3cdbcd9c	0.02683144
207	0xbcb5c850	-0.022190243
208	0xbd0283fe	-0.03186416
209	0x3d42e1f9	0.047578786
210	0x3c4b6a6d	0.012415511
211	0x3cc39761	0.023875894
212	0x3d55b76d	0.05217688
213	0x3de55d38	0.11199421
214	0x3dc79560	0.09745288
215	0x3d36ce61	0.044630412
216	0xbc46f137	-0.012142471
217	0x3d9039cd	0.070422746
218	0x3cec2d7b	0.02883028
219	0x3dcc9092	0.09988512
220	0x3e36707e	0.1781635
221	0x3e6b98ec	0.23007554
222	0x3d3e7d71	0.04650635
223	0x3ce8c31a	0.028413344
224	0xba07eb42	-0.00051848975
225	0xbd4388bd	-0.047737826
226	0x3d1f6b69	0.038920794
227	0xbe29f6e9	-0.16598095
228	0xbe86a0a2	-0.26294428
229	0xbe5deccc	-0.21672362
230	0xbdef7b83	-0.1169348
231	0xbe00e6a3	-0.12587981
232	0xbd922e85	-0.07137779
233	0x3dac87f2	0.08424367
234	0x3d99f821	0.0751803
235	0x3d02c4bc	0.0319259
236	0x3de41e39	0.11138577
237	0x3df35762	0.11881901
238	0xbcf273f8	-0.029596314
239	0xbd516edc	-0.051131114
240	0xbd56e2ab	-0.05246226
241	0x3d10384f	0.03520995
242	0xbcf48cac	-0.029852234
243	0x3cf4890a	0.029850502
244	0x37415f50	1.1525888e-05
245	0x3cfdd565	0.030985544
246	0xbd6f221f	-0.05838215
247	0x3dca7f74	0.09887591
248	0x3e86a48e	0.2629742
249	0x3e4d0317	0.2002071
250	0x3e3770a9	0.1791407
251	0x3d15c06c	0.03656046
252	0xbb76482d	-0.0037579641
253	0xbda54a91	-0.08070863
254	0xbd6c5c77	-0.05770537
255	0xbdfc03e6	-0.12305431

dense_layers.0.bias f4 [256]
0	0x3a4253b7	0.0007412987
1	0x3d1d3c6d	0.038387705
2	0x3cee501a	0.02909093
3	0x3cf52186	0.029923212
4	0x3d589fc6	0.052886747
5	0x3d754791	0.059882704
6	0x3d32f2a2	0.043688424
7	0xbcaf7fc8	-0.021423236
8	0xbd6aa753	-0.05728848
9	0x3e08937d	0.13337512
10	0x3e0eb9c3	0.1393805
11	0xbd1d9ccf	-0.038479622
12	0xbc9a7edd	-0.018859321
13	0xbccfdfe3	-0.025375312
14	0x3de8ddbe	0.11370419
15	0x3d9f4fc1	0.07778884
16	0x3a15a58b	0.0005708567
17	0xbd1154f6	-0.035481416
18	0xbdbde1fd	-0.092716195
19	0x3e609882	0.21933177
20	0xbd0518e1	-0.03249443
21	0x3d7dc4cf	0.06195527
22	0x3ceda7d7	0.029010696
23	0x3cb3a6c8	0.021930113
24	0x3dccb291	0.09994996
25	0x3d6477da	0.05577836
26	0x3cd39d56	0.02583186
27	0xbd4081fd	-0.046998966
28	0x3dab7d9c	0.083735675
29	0xbca6de54	-0.020369686
30	0x3c515268	0.012775995
31	0xbd42cd8d	-0.04755931
32	0x3c792277	0.015205971
33	0x3d061f5c	0.03274475
34	0xbcfecc64	-0.03110332
35	0xbc8bb422	-0.017053667
36	0xbd1f933b	-0.03895877
37	0x3dd0d746	0.1019731
38	0xbdad487a	-0.084610894
39	0x3d40fe6a	0.04711763
40	0x3def33bb	0.11679789
41	0x3d0ef760	0.034903884
42	0xbd9059c4	-0.070483714
43	0xbc93e2f3	-0.018052554
44	0xbd485190	-0.04890591
45	0x3d6b7ae1	0.057490233
46	0x3d2eda5a	0.042688705
47	0xbd5e6867	-0.054298785
48	0xbcbe78c1	-0.02325094
49	0x3d893d4e	0.06701146
50	0xbdc77605	-0.09739307
51	0x3cbf8a1e	0.02338129
52	0x3cd9982f	0.026561825
53	0x3dbf2db9	0.09334893
54	0x3e019188	0.12653172
55	0xbd2da85c	-0.042396888
56	0x3ce65486	0.028116476
57	0xbd33bf12	-0.04388339
58	0x3e08af5b	0.13348143
59	0x3cbfb585	0.023401985
60	0x3b6821ce	0.003542054
61	0xbd8d81ae	-0.069095
62	0x3e3391a4	0.17536026
63	0x3d178db5	0.037000377
64	0x3da96276	0.08270733
65	0xbd4a0c83	-0.04932834
66	0xbc7e2c63	-0.015513512
67	0x3cdc4e76	0.026892882
68	0x3cdb64eb	0.02678152
69	0x3ddae06c	0.10687336
70	0x3c836866	0.016040992
71	0xbc804ac5	-0.015660653
72	0x3d81ea3a	0.06343503
73	0xbc02385e	-0.007948009
74	0x3dd660b5	0.10467664
75	0x3c382fe7	0.01124189
76	0xbddabde5	-0.10680751
77	0x3aa0ceab	0.0012268623
78	0x3d86bf4f	0.06579458
79	0x3b4a57b5	0.0030875031
80	0x3d492973	0.049111795
81	0x3e0f0907	0.13968287
82	0xbdd03628	-0.101665795
83	0x3e583b05	0.21116264
84	0xbe1a6029	-0.15075745
85	0xbc81b0c8	-0.015831366
86	0xbd1add97	-0.03780898
87	0xbd2a9fc2	-0.041656263
88	0xbca8acf1	-0.020590277
89	0xbb118d47	-0.0022209452
90	0xbbb334e8	-0.0054689534
91	0xbd855e52	-0.06512131
92	0x3e0bcca3	0.13652281
93	0x3d849f48	0.06475693
94	0x3d5b64fa	0.053563096
95	0xbcc521f4	-0.024064042
96	0xbca74453	-0.020418322
97	0x3bd9a5d4	0.0066420827
98	0x3dff9d36	0.124811575
99	0x3df35d7c	0.11883065
100	0x3d62dea9	0.055388127
101	0x3d464d1f	0.048413392
102	0x3daa7447	0.083229594
103	0x3d812713	0.06306281
104	0xbdb99b92	-0.09062876
105	0xbb62dc33	-0.0034616112
106	0x3e484b64	0.19560009
107	0xbd3c6133	-0.045991134
108	0x3cd6e8a6	0.026233982
109	0xbc9f7c83	-0.019468552
110	0x3ca40f72	0.020026896
111	0x3dd3cd3b	0.10341879
112	0xbd8cf7ab	-0.068831764
113	0xbcb02c33	-0.02150545
114	0x3d95ef9c	0.073210925
115	0x3d5e36bb	0.054251414
116	0x3dc5d8b1	0.09660471
117	0xbc099645	-0.008397643
118	0xbd563895	-0.052300055
119	0x3d84bb5d	0.06481049
120	0x3d92c0c2	0.07165672
121	0xbd1d2c83	-0.038372528
122	0x3e089ac6	0.13340291
123	0x3b268414	0.0025408315
124	0xbdd2c107	-0.10290723
125	0x3debe5bb	0.11518427
126	0xbbc34b51	-0.005959906
127	0x3d335d56	0.043790184
128	0x3ad6a666	0.0016376495
129	0x3d6331a4	0.055467263
130	0xbc3f245a	-0.011666382
131	0x3d4b9e57	0.04971155
132	0xbc94dcb9	-0.018171655
133	0x3d00de72	0.03146214
134	0x3dfd9b28	0.12383109
135	0x3e173082	0.14764598
136	0x3cb504b4	0.02209697
137	0x3e2f9593	0.17146902
138	0x3e0c1344	0.13679224
139	0x3cfb27c6	0.030658614
140	0x3d2568b8	0.04038307
141	0x3c4f4aa6	0.012652075
142	0x3d8f7f3a	0.070066884
143	0x3e0b2da4	0.1359163
144	0xbd2266a6	-0.039648674
145	0x3e93c3cd	0.28860322
146	0xbdd5f229	-0.10446579
147	0x3d779077	0.060440507
148	0x3d85806e	0.06518637
149	0x3e12bb0e	0.14329168
150	0xbd112e22	-0.035444386
151	0xbbf2053b	-0.0073858774
152	0x3e54e675	0.20791037
153	0xbdd32ace	-0.10310899
154	0xbc4eac15	-0.01261427
155	0x3bc1e9de	0.0059177717
156	0x3d10580d	0.03524022
157	0xbcae127d	-0.02124905
158	0xbe14874c	-0.14504737
159	0x3d88814c	0.066652864
160	0x3dc9612f	0.098329894
161	0xbce81ab6	-0.02833305
162	0xbc77b320	-0.01511839
163	0x3d90b17e	0.07065104
164	0x3dc0d118	0.094148815
165	0x3d5dfc3e	0.054195635
166	0x3cafaf2a	0.02144583
167	0xbd57b875	-0.052666146
168	0x3d894973	0.067034625
169	0x3cb1c636	0.02170096
170	0xbd23d787	-0.040000465
171	0x3d99d1b9	0.075107045
172	0xbd18a2dc	-0.03726469
173	0xbcf82c6d	-0.030294621
174	0x3bb8ea51	0.005643167
175	0x3d78edcd	0.06077366
176	0xbd706465	-0.058689494
177	0x3e01aeef	0.12664388
178	0xbdb10c23	-0.08644893
179	0x3c11f033	0.008907366
180	0x3d10cdeb	0.03535263
181	0xbd7854d0	-0.06062776
182	0x3e059a09	0.13047041
183	0xbce76071	-0.028244229
184	0x3c9005e0	0.017580926
185	0x3d9a1c32	0.07524909
186	0xbcfffa7d	-0.031247372
187	0xbdd6bf97	-0.104857616
188	0xbca44c06	-0.020055782
189	0x3e268eef	0.16265462
190	0x3e03073f	0.12795733
191	0xbd8286a5	-0.06373338
192	0xbc8b3397	-0.016992373
193	0xbcd5933a	-0.02607118
194	0xbcf92483	-0.030412918
195	0x3e1e8315	0.15479691
196	0xbca09536	-0.0196024
197	0x3c96421b	0.018342068
198	0x3db9233b	0.09039923
199	0xbd37f106	-0.044907592
200	0x3a87d860	0.0010364167
201	0x3db04564	0.08606985
202	0x3df1fee3	0.11816194
203	0x3dd8a960	0.10579181
204	0xbd5f01d7	-0.054445114
205	0x3d05eacb	0.03269462
206	0xbdf88f96	-0.12136762
207	0x3ca35449	0.019937651
208	0xbc9dcf16	-0.019263785
209	0x3db1b219	0.086765476
210	0x3d9dcbdd	0.077048995
211	0x3e22fd34	0.15916902
212	0x3da81dcf	0.082088105
213	0xbc76719e	-0.015041737
214	0x3df45cd3	0.11931767
215	0xbda14503	-0.07874491
216	0xbc949bae	-0.01814064
217	0xbc767135	-0.015041639
218	0xbdaa6ba7	-0.08321314
219	0x3d794d68	0.060864836
220	0xbc00cb9f	-0.007861047
221	0x3e6f7f3d	0.23388381
222	0xbcc10436	-0.023561578
223	0x3dc9fccf	0.098626725
224	0xbdc14688	-0.09437281
225	0xbd102b7e	-0.035197727
226	0xbd9425a8	-0.07233745
227	0x3db9e67c	0.090771645
228	0xbd585923	-0.052819382
229	0xb7d7cb48	-2.5724657e-05
230	0x3cccc1d4	0.024994768
231	0x3d3a0b9b	0.045421224
232	0x3cf0df35	0.029403308
233	0xbce93c14	-0.02847103
234	0xbd106076	-0.035248242
235	0xbcc72fb5	-0.02431474
236	0xbd109abf	-0.035303827
237	0x3b8bbef3	0.0042647063
238	0xbcade48b	-0.021227142
239	0x3b2574c7	0.0025246607
240	0x3e4f6b3c	0.2025575
241	0x3ce13d64	0.027495094
242	0xba28d298	-0.00064400723
243	0xbd64bf82	-0.0558467
244	0x3d676aa0	0.05649817
245	0xbcdcdfec	-0.026962243
246	0xbd119966	-0.035546683
247	0x3c8a878b	0.016910335
248	0x3d977e99	0.073971935
249	0xbb85003d	-0.0040588663
250	0x3c0e4692	0.008683817
251	0x3ca80777	0.020511372
252	0x3daa7fd6	0.08325164
253	0xbd2bd894	-0.041954592
254	0x3e06ba9c	0.13157123
255	0x3e2dbd65	0.1696678

dense_layers.2.weight f4 [10, 256]
0	0x3da3fc59	0.08007116
1	0xbefb1237	-0.49037334
2	0xbe8cefd9	-0.2752674
3	0x3df5753a	0.1198525
4	0xbecd196d	-0.4005846
5	0x3db0e71b	0.0863783
6	0x3de285f6	0.11060707
7	0x3dbe0015	0.092773594
8	0xbdb654e2	-0.08902909
9	0xbcc6f35a	-0.024285961
10	0xbe12fe12	-0.14354733
11	0x3e082707	0.13296138
12	0xbe796a10	-0.24356866
13	0x3dd54b86	0.104147956
14	0xbedbb2e9	-0.42909935
15	0x3dbf3d92	0.093379155
16	0x3e07526c	0.13215035
17	0x3b95ab18	0.004567515
18	0xbd070749	-0.032965932
19	0xbdca62d8	-0.09882134
20	0x3c591d3f	0.013251602
21	0x3b95bf50	0.0045699254
22	0xbe8cc064	-0.27490532
23	0x3de5dd3b	0.11223837
24	0x3dd976d4	0.10618368
25	0xbdbeceab	-0.093167625
26	0xbe6b27c7	-0.22964393
27	0xbea0b271	-0.3138614
28	0x3def2213	0.11676421
29	0xbea85f0f	-0.32885024
30	0x3dc7bbb4	0.097525984
31	0x3e007d38	0.12547767
32	0xbe334498	-0.17506635
33	0x3dccb882	0.099961296
34	0x3de5d5ee	0.112224445
35	0xbe172b63	-0.14762644
36	0xbd7047a5	-0.058662076
37	0xbe2262af	-0.15857957
38	0xbd53ee8c	-0.051741168
39	0x3e2757b1	0.16342045
40	0x3e2d70b5	0.16937526
41	0xbc85c9ad	-0.016331518
42	0x3d2796af	0.040915187
43	0xbd136950	-0.035989106
44	0x3da59d80	0.08086681
45	0xbe926a8a	-0.28596908
46	0xbdcb2f7a	-0.09921165
47	0xbdf4e596	-0.119578525
48	0x3db423f5	0.08795921
49	0x3df5a67f	0.11994647
50	0x3dbc5c9a	0.0919735
51	0x3ddb09fb	0.10695263
52	0xbd8b5c49	-0.06804711
53	0xbdb0efaa	-0.08639462
54	0xbec91691	-0.3927503
55	0xbc09635a	-0.008385504
56	0x3e05622e	0.13025734
57	0xbde83233	-0.113377
58	0xbe9cf912	-0.30658776
59	0xbd43864a	-0.04773549
60	0xbea2ba30	-0.31782675
61	0x3dd88271	0.10571755
62	0x3e01457f	0.12624167
63	0x3de145aa	0.109996155
64	0xbf26007a	-0.6484448
65	0x3d5cc951	0.053902928
66	0x3dd899da	0.1057622
67	0xbe5e49f5	-0.217079
68	0xbe1fe005	-0.156128
69	0x3d7ee3de	0.06222903
70	0xbe458e2d	-0.19292517
71	0x3e3d668f	0.18496154
72	0xbecf034c	-0.40432203
73	0xbe6aaddd	-0.22917886
74	0xbd7fb17e	-0.06242513
75	0x3cd2db92	0.025739465
76	0x3dc62e87	0.09676843
77	0xbe345b75	-0.17613013
78	0xbe44ff1c	-0.19237942
79	0xbc9a1d6f	-0.018812863
80	0x3d6ebd33	0.058285903
81	0xbdd6abb5	-0.10481969
82	0x3d051d70	0.032498777
83	0xbf131edc	-0.5746896
84	0xbe8ad4cb	-0.27115473
85	0x3e1d3090	0.15350556
86	0xbe433a39	-0.19065179
87	0x3dffa67c	0.12482926
88	0xbd0586db	-0.03259931
89	0x3d231b8e	0.0398212
90	0xbe0aeb4e	-0.13566324
91	0xbdb183c0	-0.086677074
92	0x3e073d22	0.13206914
93	0x3d96097a	0.07326026
94	0xbd9d07b6	-0.07667486
95	0xbcda1236	-0.026620012
96	0xbed316ec	-0.41228426
97	0x3da05564	0.07828787
98	0x3db5bd02	0.08873941
99	0xbf04eb7b	-0.51921815
100	0xbec051a4	-0.37562287
101	0x3e20877f	0.15676688
102	0x3e3be6c9	0.18349756
103	0x3e1c7062	0.15277246
104	0xbc061ebd	-0.0081860395
105	0x3cbc542b	0.022989353
106	0xbea3bc60	-0.31979656
107	0x3e181dee	0.14855167
108	0xbe011a28	-0.12607634
109	0x3d9ef386	0.07761292
110	0x3d6dfa4d	0.058100034
111	0xbe08a30c	-0.13343447
112	0xbd76bfb3	-0.060241412
113	0x3ceabbc0	0.02865398
114	0x3e095c4d	0.13414116
115	0x3d5ad17e	0.053422444
116	0xbe593266	-0.21210632
117	0xbdba08ce	-0.090837106
118	0x3d7b189c	0.061302766
119	0x3e0c6ff9	0.13714589
120	0xbeb0260c	-0.34404027
121	0xbca6efef	-0.020378081
122	0x3eab4c99	0.33456877
123	0x3dcd5bed	0.10027299
124	0x3dd807b1	0.10548342
125	0x3e267a27	0.16257535
126	0x3ca20297	0.019776626
127	0x3d4ffd1f	0.050778504
128	0x3d7da9cc	0.06192951
129	0x3e2983d4	0.16554195
130	0x3e0c636a	0.13709798
131	0xbdf321c4	-0.11871675
132	0x3dc29ca7	0.09502535
133	0xbe23d579	-0.15999402
134	0x3deb09f9	0.114765115
135	0x3c515dd6	0.01277872
136	0xbcaaf6ad	-0.020869577
137	0x3e46ce67	0.19414674
138	0xbec10f8d	-0.37707177
139	0x3e087f3f	0.1332979
140	0xbdf1623d	-0.117863156
141	0x3e5a494f	0.21317028
142	0xbe893c6e	-0.26803917
143	0xbe0a8ae5	-0.13529547
144	0x3e5c692c	0.21524495
145	0xbe056a79	-0.13028897
146	0xbda3899d	-0.07985232
147	0xbbf7a90e	-0.0075579947
148	0x3e1cd3e6	0.15315208
149	0x3e248015	0.16064484
150	0x3dc2835e	0.094977126
151	0xbd03b9ae	-0.0321595
152	0xbe532a97	-0.20621715
153	0x3d7e9017	0.062149134
154	0xbde0923c	-0.10965392
155	0xbd44108d	-0.047867347
156	0xbe9d0297	-0.30666038
157	0x3d793b47	0.060847547
158	0x3d86040e	0.06543742
159	0xbd895efc	-0.0670757
160	0x3d11e3f0	0.03561777
161	0x3ea8543b	0.32876763
162	0x3e11440a	0.14186111
163	0xbee4b3cc	-0.44668424
164	0x3dacd371	0.08438767
165	0xbdc1437b	-0.09436699
166	0x3cbd2827	0.023090435
167	0x3de7927e	0.11307238
168	0x3e112c30	0.14177012
169	0xbec53a04	-0.38520825
170	0xbcfd4a25	-0.030919144
171	0x3e066d65	0.13127668
172	0xbdea1ffd	-0.114318825
173	0xbc16fe61	-0.009215922
174	0xbe1c8826	-0.15286312
175	0xbe14dd26	-0.14537486
176	0xbeddcfd6	-0.4332263
177	0x3dddd4f0	0.1083163
178	0x3c49545f	0.012288182
179	0xbd6b566b	-0.05745546
180	0xbdf2a5d2	-0.11848034
181	0xbe18c759	-0.14919795
182	0xbe14a4aa	-0.1451594
183	0xbdd07c6b	-0.10179981
184	0x3c0515d0	0.008122876
185	0xbe3ecdd6	-0.18633208
186	0xbd1b3a54	-0.037897423
187	0xbd5b30a4	-0.053513184
188	0x3d0f69c0	0.03501296
189	0x3dc55828	0.09635955
190	0xbe930afa	-0.28719312
191	0xbdaa76d2	-0.083234444
192	0xbe5b95ee	-0.21443912
193	0x3dbc2360	0.09186435
194	0x3d84868f	0.064709775
195	0xbe69b354	-0.22822315
196	0xbe853f09	-0.26024655
197	0x3d0392cc	0.03212242
198	0xbe4be4ab	-0.19911449
199	0xbe4cba68	-0.19992983
200	0x3e2ef071	0.17083909
201	0xbe753fff	-0.23950194
202	0xbeb11122	-0.34583384
203	0x3d972443	0.07379963
204	0x3e05ed48	0.13078797
205	0xbe57136d	-0.21003504
206	0x3d22d763	0.03975619
207	0x3ddec002	0.10876466
208	0x3d04bc58	0.03240618
209	0xbee9e90d	-0.45685616
210	0xbdd69eec	-0.10479531
211	0xbe8a4c06	-0.27011126
212	0x3e490123	0.1962934
213	0x3e06b245	0.13153942
214	0x3d8eb7fb	0.06968685
215	0xbc4c2610	-0.012460247
216	0xbe486451	-0.19569518
217	0x3df480f4	0.11938658
218	0x3dd144e4	0.10218218
219	0x3e350cd3	0.17680673
220	0xbb4b3fb3	-0.003101331
221	0xbe0513fe	-0.12995908
222	0xbc5267b1	-0.012842105
223	0x3c271e94	0.0102001615
224	0x3d70d5b5	0.058797557
225	0x3dfbf904	0.12303355
226	0x3d4932ac	0.04912059
227	0x3db1a086	0.086731955
228	0xbdb0a0e4	-0.086244375
229	0x3d8f8548	0.07007843
230	0xbe2e7158	-0.17035425
231	0xbde88cf7	-0.11355012
232	0xbdc5ca9b	-0.096577846
233	0x3c8b72b9	0.017022477
234	0x3dabd2b7	0.083898
235	0x3d0f4bdc	0.034984455
236	0x3de9fc52	0.114250794
237	0x3e0bcf47	0.13653289
238	0x3d0c90eb	0.034317892
239	0xbe8bc506	-0.27298754
240	0x3dd55803	0.104171775
241	0xbec24274	-0.37941325
242	0xbd37e334	-0.044894412
243	0x3ca8b185	0.02059246
244	0x3e0e8c6f	0.13920759
245	0xbdf135f8	-0.11777872
246	0xbeeae87b	-0.45880494
247	0xbedabdec	-0.42723024
248	0xbe3d294f	-0.18472789
249	0xbe7363b3	-0.23768501
250	0x3dd58805	0.10426334
251	0xbc30f966	-0.010801649
252	0xbea42135	-0.32056585
253	0x3e20e6ac	0.15712994
254	0x3c25c1c9	0.010117003
255	0xbe091e51	-0.13390471

dense_layers.2.bias f4 [10]
0	0xbd14d233	-0.036333274
1	0x3d6ae4a9	0.057346974
2	0xbd3b7daa	-0.04577414
3	0xbdc54494	-0.09632221
4	0x3d5fcf63	0.05464114
5	0x3dc7b2c7	0.09750896
6	0x3b6ff881	0.0036616626
7	0x3d626a05	0.05527689
8	0xbd97960e	-0.074016675
9	0x3c3ac6d0	0.01139994
